03-PEFT/23-peft/loraA/adapter_model.bin (torch, 1727 bytes, 2 tensors)

base_model.model.0.lora_A.weight f4 [8, 10]
000000 11 04 9b 3e 98 26 cc 3d ae 3e bc bd c4 8d 98 3d
       0.3027654 0.09968299 -0.09191643 0.07448915
000010 bc d9 80 3d df 6f 80 be 20 02 52 bd 7c aa 31 be
       0.062915295 -0.2508535 -0.051271558 -0.17350191
000020 32 a0 13 3e b6 d0 a0 be cf 42 8c 3e c0 83 08 3d
       0.14416578 -0.31409234 0.2739472 0.03332877
000030 d0 e1 da 3c e7 60 8b 3e 40 52 90 bd 20 b9 32 bc
       0.026719004 0.27222368 -0.07046938 -0.010908395
000040 fe 1b 35 3e f0 9b fe 3c c3 c2 a1 3e dc cd 8f be
       0.1768646 0.031080216 0.31593904 -0.28086746
000050 26 a1 a9 bd dc f1 20 3e d8 d9 45 bd 56 49 64 3e
       -0.0828269 0.15717262 -0.048303455 0.222936
000060 b0 cc 51 bd 86 6d 54 3e c0 72 5f 3d a0 8f 29 bd
       -0.051220596 0.20744905 0.054552794 -0.041396737
000070 5d 9a 8b 3e 39 81 2b be 2a 8b 5c 3e 4a 7e 48 3e
       0.27266207 -0.16748513 0.21537462 0.19579425
000080 b7 9d 3c be a1 86 0b be 38 a1 c1 bd 70 c5 c3 3c
       -0.18419538 -0.13625576 -0.09454578 0.023897856
000090 7a cb 66 3e e0 b3 f1 3c 08 92 62 bd 6c 30 b7 bd
       0.22538558 0.029504716 -0.055315048 -0.089447826
0000a0 6c ae f5 3d 3c 69 4c be e3 c3 9f be ec 99 b4 3d
       0.11996159 -0.19962019 -0.31204137 0.08818421
0000b0 9a 54 9c be c8 b9 d8 3d be 42 5e be 05 44 9f 3e
       -0.30533296 0.1058231 -0.21705148 0.31106582
0000c0 2d 81 9c 3e 3a 4d 99 bd d6 54 24 3e 58 4a 2f 3d
       0.30567303 -0.07485433 0.16047987 0.04279551
0000d0 fe ac 74 3e 30 e6 2e 3e b3 13 6a be 00 f8 00 bb
       0.23894116 0.17079997 -0.22859077 -0.001967907
0000e0 bc 89 7c be 22 8b a9 bd 30 88 88 be 19 10 98 be
       -0.24661916 -0.082784906 -0.26666403 -0.29699782
0000f0 50 a3 4d be 7c 13 05 be 6c e6 8f bd 80 35 90 bb
       -0.2008183 -0.12995714 -0.07026371 -0.004400909
000100 5e 97 57 3e fe 1a 17 3e ca 4d 8b be 0b 01 94 be
       0.21053836 0.1475639 -0.27207786 -0.28907046
000110 32 96 60 3e 68 99 5a 3d 20 85 e7 3d 4f b3 2a be
       0.21932295 0.053368956 0.113046885 -0.16669963
000120 12 19 75 3e 6d e8 81 3e 08 23 d4 3d 8d 09 9b be
       0.23935345 0.2537264 0.10358244 -0.30280724
000130 f6 48 b0 bd ca e9 12 3e 14 eb a5 bd ca 9b 4f be
       -0.08607666 0.14346996 -0.08101478 -0.20274273

base_model.model.0.lora_B.weight f4 [10, 8]
000000 00 00 00 00 00 00 00 00 00 00 00 00 00 00 00 00
       0.0 0.0 0.0 0.0
000010 00 00 00 00 00 00 00 00 00 00 00 00 00 00 00 00
       0.0 0.0 0.0 0.0
000020 00 00 00 00 00 00 00 00 00 00 00 00 00 00 00 00
       0.0 0.0 0.0 0.0
000030 00 00 00 00 00 00 00 00 00 00 00 00 00 00 00 00
       0.0 0.0 0.0 0.0
000040 00 00 00 00 00 00 00 00 00 00 00 00 00 00 00 00
       0.0 0.0 0.0 0.0
000050 00 00 00 00 00 00 00 00 00 00 00 00 00 00 00 00
       0.0 0.0 0.0 0.0
000060 00 00 00 00 00 00 00 00 00 00 00 00 00 00 00 00
       0.0 0.0 0.0 0.0
000070 00 00 00 00 00 00 00 00 00 00 00 00 00 00 00 00
       0.0 0.0 0.0 0.0
000080 00 00 00 00 00 00 00 00 00 00 00 00 00 00 00 00
       0.0 0.0 0.0 0.0
000090 00 00 00 00 00 00 00 00 00 00 00 00 00 00 00 00
       0.0 0.0 0.0 0.0
0000a0 00 00 00 00 00 00 00 00 00 00 00 00 00 00 00 00
       0.0 0.0 0.0 0.0
0000b0 00 00 00 00 00 00 00 00 00 00 00 00 00 00 00 00
       0.0 0.0 0.0 0.0
0000c0 00 00 00 00 00 00 00 00 00 00 00 00 00 00 00 00
       0.0 0.0 0.0 0.0
0000d0 00 00 00 00 00 00 00 00 00 00 00 00 00 00 00 00
       0.0 0.0 0.0 0.0
0000e0 00 00 00 00 00 00 00 00 00 00 00 00 00 00 00 00
       0.0 0.0 0.0 0.0
0000f0 00 00 00 00 00 00 00 00 00 00 00 00 00 00 00 00
       0.0 0.0 0.0 0.0
000100 00 00 00 00 00 00 00 00 00 00 00 00 00 00 00 00
       0.0 0.0 0.0 0.0
000110 00 00 00 00 00 00 00 00 00 00 00 00 00 00 00 00
       0.0 0.0 0.0 0.0
000120 00 00 00 00 00 00 00 00 00 00 00 00 00 00 00 00
       0.0 0.0 0.0 0.0
000130 00 00 00 00 00 00 00 00 00 00 00 00 00 00 00 00
       0.0 0.0 0.0 0.0
