03-PEFT/23-peft/loraB/adapter_model.bin (torch, 2691 bytes, 4 tensors)

base_model.model.0.lora_A.weight f4 [8, 10]
00000000: 1104 9b3e 9826 cc3d ae3e bcbd c48d 983d
00000010: bcd9 803d df6f 80be 2002 52bd 7caa 31be
00000020: 32a0 133e b6d0 a0be cf42 8c3e c083 083d
00000030: d0e1 da3c e760 8b3e 4052 90bd 20b9 32bc
00000040: fe1b 353e f09b fe3c c3c2 a13e dccd 8fbe
00000050: 26a1 a9bd dcf1 203e d8d9 45bd 5649 643e
00000060: b0cc 51bd 866d 543e c072 5f3d a08f 29bd
00000070: 5d9a 8b3e 3981 2bbe 2a8b 5c3e 4a7e 483e
00000080: b79d 3cbe a186 0bbe 38a1 c1bd 70c5 c33c
00000090: 7acb 663e e0b3 f13c 0892 62bd 6c30 b7bd
000000a0: 6cae f53d 3c69 4cbe e3c3 9fbe ec99 b43d
000000b0: 9a54 9cbe c8b9 d83d be42 5ebe 0544 9f3e
000000c0: 2d81 9c3e 3a4d 99bd d654 243e 584a 2f3d
000000d0: feac 743e 30e6 2e3e b313 6abe 00f8 00bb
000000e0: bc89 7cbe 228b a9bd 3088 88be 1910 98be
000000f0: 50a3 4dbe 7c13 05be 6ce6 8fbd 8035 90bb
00000100: 5e97 573e fe1a 173e ca4d 8bbe 0b01 94be
00000110: 3296 603e 6899 5a3d 2085 e73d 4fb3 2abe
00000120: 1219 753e 6de8 813e 0823 d43d 8d09 9bbe
00000130: f648 b0bd cae9 123e 14eb a5bd ca9b 4fbe
0.3027654 0.09968299 -0.09191643 0.07448915 0.062915295 -0.2508535 -0.051271558 -0.17350191
0.14416578 -0.31409234 0.2739472 0.03332877 0.026719004 0.27222368 -0.07046938 -0.010908395
0.1768646 0.031080216 0.31593904 -0.28086746 -0.0828269 0.15717262 -0.048303455 0.222936
-0.051220596 0.20744905 0.054552794 -0.041396737 0.27266207 -0.16748513 0.21537462 0.19579425
-0.18419538 -0.13625576 -0.09454578 0.023897856 0.22538558 0.029504716 -0.055315048 -0.089447826
0.11996159 -0.19962019 -0.31204137 0.08818421 -0.30533296 0.1058231 -0.21705148 0.31106582
0.30567303 -0.07485433 0.16047987 0.04279551 0.23894116 0.17079997 -0.22859077 -0.001967907
-0.24661916 -0.082784906 -0.26666403 -0.29699782 -0.2008183 -0.12995714 -0.07026371 -0.004400909
0.21053836 0.1475639 -0.27207786 -0.28907046 0.21932295 0.053368956 0.113046885 -0.16669963
0.23935345 0.2537264 0.10358244 -0.30280724 -0.08607666 0.14346996 -0.08101478 -0.20274273

base_model.model.0.lora_B.weight f4 [10, 8]
00000000: 0000 0000 0000 0000 0000 0000 0000 0000
00000010: 0000 0000 0000 0000 0000 0000 0000 0000
00000020: 0000 0000 0000 0000 0000 0000 0000 0000
00000030: 0000 0000 0000 0000 0000 0000 0000 0000
00000040: 0000 0000 0000 0000 0000 0000 0000 0000
00000050: 0000 0000 0000 0000 0000 0000 0000 0000
00000060: 0000 0000 0000 0000 0000 0000 0000 0000
00000070: 0000 0000 0000 0000 0000 0000 0000 0000
00000080: 0000 0000 0000 0000 0000 0000 0000 0000
00000090: 0000 0000 0000 0000 0000 0000 0000 0000
000000a0: 0000 0000 0000 0000 0000 0000 0000 0000
000000b0: 0000 0000 0000 0000 0000 0000 0000 0000
000000c0: 0000 0000 0000 0000 0000 0000 0000 0000
000000d0: 0000 0000 0000 0000 0000 0000 0000 0000
000000e0: 0000 0000 0000 0000 0000 0000 0000 0000
000000f0: 0000 0000 0000 0000 0000 0000 0000 0000
00000100: 0000 0000 0000 0000 0000 0000 0000 0000
00000110: 0000 0000 0000 0000 0000 0000 0000 0000
00000120: 0000 0000 0000 0000 0000 0000 0000 0000
00000130: 0000 0000 0000 0000 0000 0000 0000 0000
0.0 0.0 0.0 0.0 0.0 0.0 0.0 0.0
0.0 0.0 0.0 0.0 0.0 0.0 0.0 0.0
0.0 0.0 0.0 0.0 0.0 0.0 0.0 0.0
0.0 0.0 0.0 0.0 0.0 0.0 0.0 0.0
0.0 0.0 0.0 0.0 0.0 0.0 0.0 0.0
0.0 0.0 0.0 0.0 0.0 0.0 0.0 0.0
0.0 0.0 0.0 0.0 0.0 0.0 0.0 0.0
0.0 0.0 0.0 0.0 0.0 0.0 0.0 0.0
0.0 0.0 0.0 0.0 0.0 0.0 0.0 0.0
0.0 0.0 0.0 0.0 0.0 0.0 0.0 0.0

base_model.model.2.lora_A.weight f4 [8, 10]
00000000: 5fa5 993e 246e 9dbe a079 f43d b827 7e3d
00000010: 263a 493e a769 893e b09f 89bd 165b 95be
00000020: 4268 50be d250 fcbd 6072 4abd 6059 b7bc
00000030: 9a05 653e 60ce 40bd 4e38 5d3e fc4e b33d
00000040: 214d a1be 9e1d 5bbe 4837 51be 7e04 5f3e
00000050: 45eb 95be 43d9 923e c039 20bd 081a 16bd
00000060: 4286 523e 30f6 d03c dd3f 12be 4415 82be
00000070: 9ad6 87bd c0f1 e13d d808 1d3d 1943 0abe
00000080: a7a3 32be a26b 08be 8009 0bbc e888 693d
00000090: c2c1 24be 5454 9e3d ce47 563e 007b 613d
000000a0: c025 fe3d c829 48bd 57b3 843e 844a bb3d
000000b0: 80bf b73c aed4 90be c036 d7bb f671 abbd
000000c0: c065 2ebd 80c0 1ebd c8fe 2fbd a449 f23d
000000d0: ce4d 423e c8ce 2f3e 6065 7fbc e794 21be
000000e0: 2027 65be 7350 8d3e d467 a23d 18df 2c3d
000000f0: d6d6 a1bd beba 78be 20f0 c53d 92a5 723e
00000100: 53b1 823e c07f d9bb 5820 46be c429 a1bd
00000110: f253 64be 7a0e 0e3e 6077 8a3d 9d01 0ebe
00000120: 55a0 8bbe 5c3a b93d 3028 f73c ce47 9dbe
00000130: 1083 6fbd d1a8 9abe a170 983e d8e4 19bd
0.3000898 -0.30748093 0.11937261 0.062049598 0.19651088 0.2683842 -0.06719911 -0.29171056
-0.20352271 -0.12320103 -0.049425483 -0.022381485 0.22365418 -0.047071815 0.2160351 0.087552994
-0.31504157 -0.21398017 -0.20431244 0.21779057 -0.2928106 0.28681383 -0.039117575 -0.03664592
0.20559028 0.025508016 -0.14282174 -0.2540685 -0.06632729 0.11032438 0.038338512 -0.13502158
-0.17445241 -0.13322309 -0.008486152 0.05701533 -0.16089538 0.07730928 0.20925829 0.055048943
0.12409544 -0.04886797 0.25918075 0.09145072 0.022430182 -0.28287262 -0.006567806 -0.08371346
-0.042577505 -0.0387578 -0.042967588 0.11830452 0.18974993 0.17168725 -0.0155881345 -0.15779458
-0.22378206 0.2760044 0.0792996 0.042204946 -0.07902305 -0.24289986 0.09664941 0.23695973
0.25525913 -0.0066375434 -0.19348276 -0.07869294 -0.22297648 0.1387271 0.0676105 -0.13867803
-0.2727076 0.09044334 0.03017053 -0.30718845 -0.0584746 -0.30206922 0.2977343 -0.037571758

base_model.model.2.lora_B.weight f4 [2, 8]
00000000: 0000 0000 0000 0000 0000 0000 0000 0000
00000010: 0000 0000 0000 0000 0000 0000 0000 0000
00000020: 0000 0000 0000 0000 0000 0000 0000 0000
00000030: 0000 0000 0000 0000 0000 0000 0000 0000
0.0 0.0 0.0 0.0 0.0 0.0 0.0 0.0
0.0 0.0 0.0 0.0 0.0 0.0 0.0 0.0
